qfnn_test_results/mini_trained_model.pt (torch, 30959 bytes, 5 tensors)

token_representation.embeddings.weight f4 [100, 2]
0	0x3f8872d3	1.0660042
1	0x3fd89aec	1.6922278
2	0xbf34e611	-0.70663553
3	0xbfed6f76	-1.854964
4	0xbf77614a	-0.96632826
5	0xbfdbbd50	-1.7167149
6	0xbed6903a	-0.4190691
7	0x3ff46c5a	1.9095566
8	0x3dda4166	0.10657005
9	0x3ff7f1ee	1.9370706
10	0x3f1138e0	0.5672741
11	0x3feb7550	1.8395176
12	0xbfb13627	-1.3844651
13	0x3fa86c77	1.3158101
14	0xbf967789	-1.1755229
15	0x3fbe3ffe	1.4863279
16	0xbf114d1a	-0.5675827
17	0x3fe56945	1.7922751
18	0xbf78c330	-0.9717283
19	0xbfcbc190	-1.5918446
20	0x3e3b4767	0.18288957
21	0xbfeba3d8	-1.8409376
22	0xbf8c4df7	-1.0961293
23	0xbfbc5eb7	-1.4716405
24	0xbfe7968c	-1.8092818
25	0xbe49f61b	-0.19722788
26	0x3f616a06	0.88052404
27	0xbfc9af36	-1.5756595
28	0xbfe4e342	-1.7881854
29	0x3da506a4	0.08057907
30	0xbfcca9e0	-1.5989342
31	0x3f454eff	0.77073663
32	0x3eb78134	0.35840762
33	0x3fdc8f36	1.7231205
34	0x3f6c488b	0.9229819
35	0x3fbd8ed8	1.4809217
36	0x3f4198bd	0.75623685
37	0xbfc729a3	-1.5559582
38	0xbfc68283	-1.5508579
39	0x3f3b6f23	0.73216456
40	0xbfae7341	-1.3628923
41	0x3f82109f	1.0161322
42	0xbfb94936	-1.4475467
43	0x3f5cca0f	0.86245817
44	0xbf92d4ef	-1.1471232
45	0xbf9b59b8	-1.2136755
46	0x3fcc31af	1.5952662
47	0x3ee199a1	0.44062522
48	0x3e33396e	0.17502376
49	0x3fd0b89c	1.6306338
50	0x3fcd9e71	1.6063977
51	0x3e7b0f69	0.24517597
52	0xbfac1aa9	-1.3445636
53	0x3f62b541	0.8855782
54	0xbf35fac4	-0.7108576
55	0x3fb6c33a	1.4278328
56	0xbe2589f0	-0.161659
57	0xbfc92dbc	-1.5717082
58	0xbfc83eca	-1.5644162
59	0x3d2f15c0	0.04274535
60	0x3eb648a2	0.3560229
61	0x3fc1186f	1.5085582
62	0x3fc37480	1.5269928
63	0xbe205707	-0.15658198
64	0x3f816ed8	1.0111952
65	0x3f9142c2	1.1348498
66	0x3ea0717f	0.3133659
67	0x3fbc6af8	1.4720144
68	0x3fa681c8	1.3008356
69	0x3f3a0185	0.7265857
70	0xbfab99b8	-1.3406286
71	0xbf1d76bc	-0.615093
72	0x3f9534f1	1.1656781
73	0xbf610be0	-0.87908745
74	0x3fb8b926	1.4431503
75	0xbd95b015	-0.073089756
76	0xbe653958	-0.22385156
77	0xbfb4c88f	-1.4123706
78	0xbfac6c26	-1.3470504
79	0x3eddcf15	0.43322054
80	0xbe86c5b1	-0.26322702
81	0xbfb00109	-1.3750316
82	0x3f81a80b	1.0129408
83	0xbf71ce12	-0.94455063
84	0x3faeb373	1.3648514
85	0xbdf305ab	-0.118663155
86	0xbf7f3f56	-0.9970602
87	0x3f6ae47d	0.91754895
88	0xbfa7bc0b	-1.3104261
89	0x3e8f5840	0.27997017
90	0x3f824022	1.0175822
91	0xbf593f00	-0.84861755
92	0x3ec04627	0.37553522
93	0xbfa0a478	-1.2550192
94	0x3f9e04f7	1.2345265
95	0xbec83feb	-0.39111266
96	0xbe24e22a	-0.161019
97	0x3fa289d9	1.2698318
98	0xbf276f02	-0.6540376
99	0xbf8a9940	-1.0828018
100	0x3e8f0bac	0.27938592
101	0x3f9bf3cb	1.2183775
102	0xbf93c0a1	-1.1543161
103	0xbee0cd51	-0.43906644
104	0x3f106262	0.5640012
105	0x3f8a7899	1.0818053
106	0x3f03302d	0.51245385
107	0xbf8b98e6	-1.0906036
108	0x3ee7fb8b	0.453091
109	0x3f8cd8d7	1.1003674
110	0xbf917567	-1.1363953
111	0xbe98f12a	-0.29871494
112	0xbe5337fe	-0.20626828
113	0xbf921d1e	-1.1415136
114	0xbec02b5f	-0.3753309
115	0xbf8a764f	-1.0817355
116	0x3c8994d5	0.016794601
117	0xbf909fc0	-1.1298752
118	0x3efd781a	0.49505693
119	0x3f7fc325	0.9990714
120	0xbd0f50c2	-0.034989126
121	0x3f8cba8f	1.0994433
122	0x3f888f62	1.0668757
123	0xbe4a3a38	-0.19748771
124	0xbf8258b1	-1.0183316
125	0x3ea82ed5	0.3284823
126	0xbee07ab2	-0.4384361
127	0x3f75a736	0.9595827
128	0x3f8502ae	1.0391443
129	0xbd2cc228	-0.04217735
130	0x3f3fba5f	0.74893755
131	0x3f3325fd	0.6997984
132	0xbea46dd6	-0.32115048
133	0x3f752410	0.9575815
134	0xbec4f75f	-0.3846998
135	0x3f6ae950	0.91762257
136	0x3ec18d0b	0.3780292
137	0x3f67769e	0.9041537
138	0xbe2c6914	-0.16836959
139	0x3f734032	0.9501983
140	0xbe04cdd4	-0.12969142
141	0x3f70ec50	0.94110584
142	0x3f34bdd4	0.70602155
143	0xbf1ced03	-0.6129915
144	0x3d92a5ee	0.07160555
145	0xbf6ace38	-0.91720915
146	0xbf518c30	-0.81854534
147	0xbec5a3ea	-0.3860162
148	0x3f5b3417	0.8562636
149	0xbe788b66	-0.24271926
150	0xbe8de547	-0.27713987
151	0xbf5477a9	-0.82995087
152	0x3d688499	0.05676708
153	0xbf5bae0b	-0.85812443
154	0xbf57b574	-0.8426125
155	0x3d81ffc0	0.063476086
156	0x3f4ce72b	0.80040234
157	0x3e60f1e7	0.21967278
158	0x3f009bb2	0.5023757
159	0xbf2449c0	-0.64175034
160	0xbf0bc890	-0.5460291
161	0x3f15adab	0.5846812
162	0xbe89a230	-0.26881552
163	0x3f3ccf55	0.73753864
164	0x3f23ed8b	0.64034337
165	0x3edaf13d	0.42762175
166	0xbedea380	-0.43484116
167	0x3f1e00f1	0.61720186
168	0x3f00a24c	0.50247645
169	0x3f0b123e	0.5432471
170	0x3f361cd3	0.7113773
171	0xbe0f3d83	-0.13988309
172	0x3f2bd9d6	0.67129266
173	0xbe6cc6eb	-0.23122756
174	0xbef1b8e6	-0.4721138
175	0x3f029184	0.5100329
176	0x3f06f0c7	0.5271115
177	0x3edbf420	0.4295969
178	0x3ece64d5	0.40311304
179	0x3f07655a	0.52889025
180	0x3eb7bc50	0.3588586
181	0xbf0abde3	-0.54195994
182	0x3e93c660	0.28862286
183	0x3f10cc3b	0.5656163
184	0xbe5ff0e7	-0.2186924
185	0x3f1484b0	0.58014965
186	0xbf1a3fba	-0.6025349
187	0x3d5f7991	0.054559294
188	0x3edacc9e	0.42734236
189	0x3ed046da	0.40679055
190	0x3ef284ea	0.4736703
191	0x3ea6e68d	0.3259777
192	0x3ec331c9	0.3812392
193	0xbed20492	-0.41019112
194	0x3e9ee2b7	0.31032345
195	0xbee5633b	-0.4480227
196	0xbeff7fbb	-0.49902138
197	0xbe36d401	-0.1785431
198	0x3ed1d077	0.4097936
199	0x3e9fb400	0.31192017

projection.projection.weight f4 [64, 2]
0	0x3e72a344	0.23695093
1	0x3dfc3240	0.12314272
2	0x3e811b74	0.25216258
3	0x3e372c80	0.17888069
4	0x3ead5f3e	0.33861727
5	0xbe5ca0c6	-0.21545705
6	0xbeb5369d	-0.3539323
7	0x3e681814	0.22665435
8	0x3e9529d8	0.29133487
9	0xbdca52f0	-0.098791
10	0xbf0b0ffc	-0.54321265
11	0x3ebc4946	0.36774653
12	0xbee608b4	-0.44928515
13	0x3f34987b	0.70545167
14	0xbf0b4a00	-0.5440979
15	0xbdddedb0	-0.10836351
16	0x3e3893a4	0.1802507
17	0xbf2655ed	-0.6497486
18	0xbf29d90d	-0.6634682
19	0x3e1f56f4	0.15560514
20	0x3f18e843	0.59729403
21	0xbf2ded4f	-0.6794023
22	0x3e3a4e44	0.18193918
23	0xbb346100	-0.0027523637
24	0x3ebfe722	0.37481028
25	0x3ecbf66a	0.39836437
26	0x3ec8438e	0.3911404
27	0x3ecb6e66	0.39732665
28	0xbe3753a0	-0.17902994
29	0xbea858b3	-0.32880172
30	0x3ef1656a	0.47147685
31	0xbed615c5	-0.41813484
32	0x3e2c53a8	0.16828787
33	0xbe2d49c0	-0.16922665
34	0x3dba6a50	0.09102309
35	0xbc85b060	-0.016319454
36	0x3edd388a	0.43207198
37	0xbe67e20e	-0.22644827
38	0xbecca41b	-0.39968953
39	0xbe70d08e	-0.23517057
40	0x3ed660fe	0.41870874
41	0xbe5f86b4	-0.21828729
42	0x3f0dd98b	0.5541007
43	0x3d8529c8	0.0650211
44	0xbf14ad42	-0.5807687
45	0x3de60810	0.112320065
46	0xbe392180	-0.18079185
47	0xbef6a108	-0.48169732
48	0xbd7dac80	-0.061932087
49	0x3e984b0a	0.2974475
50	0x3f0cfe97	0.55075973
51	0x3ec8dd1e	0.392312
52	0x3e7e7674	0.24849874
53	0xbdc30510	-0.0952245
54	0x3f29329d	0.66092855
55	0x3f263fc3	0.6494104
56	0xbf2b9bee	-0.67034805
57	0x3ebf401a	0.37353593
58	0xbedd24a3	-0.43192014
59	0xbf2086b5	-0.62705547
60	0xbe9b2003	-0.3029786
61	0xbec2f193	-0.38074932
62	0xbee61275	-0.44935957
63	0xbecc47ed	-0.39898625
64	0xbec73d09	-0.38913754
65	0xbdf30d78	-0.11867803
66	0x3eaa71be	0.33289903
67	0x3f2bf58b	0.67171544
68	0x3ed48e6a	0.41514903
69	0xbe72d984	-0.23715788
70	0x3f0fdacf	0.5619325
71	0xbd8e7a40	-0.06956911
72	0x3e1b4864	0.15164334
73	0xbebb04a7	-0.36526987
74	0x3f148267	0.5801148
75	0xbd3546d0	-0.044256985
76	0xbec2938a	-0.38003188
77	0x3eb4baae	0.35298675
78	0x3ec4e826	0.38458365
79	0x3d5d8fa0	0.05409205
80	0x3f1aabd1	0.6041842
81	0x3ebade56	0.36497754
82	0x3edcf416	0.43154973
83	0xbdc4fda0	-0.09618688
84	0x3e8722de	0.2639379
85	0xbebba245	-0.3664724
86	0x3e670cb4	0.2256344
87	0xbc0c0540	-0.008546174
88	0x3f310af3	0.6915733
89	0x3f26144d	0.64874727
90	0xbe2915ac	-0.16512173
91	0x3e489864	0.19589382
92	0x3d62b880	0.055351734
93	0x3cd40060	0.025879085
94	0xbef7737a	-0.4833029
95	0xbe33cfc4	-0.17559725
96	0x3e38e40c	0.18055743
97	0xbec5f975	-0.38666883
98	0xbdb671a0	-0.08908391
99	0xbe3f31f8	-0.18671405
100	0xbea7ee6f	-0.32799098
101	0xbed1fc75	-0.41012922
102	0xbf192214	-0.59817624
103	0x3e3b725c	0.18305343
104	0x3f20981d	0.62732106
105	0x3f1e0013	0.61718863
106	0xbee3c938	-0.44489455
107	0xbd1bfdb0	-0.038083732
108	0xbf0e39f9	-0.5555721
109	0xbebe902b	-0.37219366
110	0x3f27ca75	0.655433
111	0x3eafa68e	0.3430676
112	0x3ebe9d1a	0.37229234
113	0xbf09b139	-0.53786045
114	0xbdd6b9e8	-0.104846776
115	0xbe307d44	-0.17235285
116	0xbee91f94	-0.45531905
117	0x3f08c0cd	0.5341919
118	0x3ebc87c6	0.36822337
119	0x3ed0f4da	0.40811807
120	0xbed7115b	-0.4200543
121	0x3e8ad7ba	0.2711771
122	0x3e92ecc6	0.2869627
123	0x3f21a9dd	0.63149816
124	0xbefb96b3	-0.49138412
125	0xbf05f482	-0.52326214
126	0x3df426d0	0.119214654
127	0xbf117802	-0.5682374

projection.projection.bias f4 [64]
0	0xbd93e620	-0.07221627
1	0x3d4c4940	0.049874544
2	0x3ddf2f78	0.10897726
3	0x3f1f016f	0.6211156
4	0x3f223f67	0.63377994
5	0x3e93ad16	0.28842992
6	0x3e76f028	0.2411505
7	0x3ec37ff6	0.38183564
8	0x3e6d7220	0.23188066
9	0x3f341325	0.7034171
10	0xbefab05c	-0.48962677
11	0x3e525b0c	0.20542544
12	0xbe3c218c	-0.18372172
13	0x3f04aa5f	0.51822466
14	0x3dd1a718	0.10236949
15	0xbe35eab8	-0.1776532
16	0x3f2ea94d	0.6822708
17	0x3e4c2b4c	0.19938391
18	0xbe8939d9	-0.26801947
19	0x3da8d4e0	0.08243728
20	0xbefa1ced	-0.48850194
21	0xbf194f3d	-0.59886533
22	0xbe0ad9d8	-0.13559663
23	0xbdbb0170	-0.091311336
24	0xbdacd950	-0.084398866
25	0xbec570bb	-0.3856257
26	0xbee0271e	-0.43779844
27	0xbf1bfaa8	-0.60929346
28	0x3f0981fd	0.5371397
29	0x3ed209ba	0.41023046
30	0xbd826af8	-0.06368059
31	0x3ee88de6	0.4542076
32	0x3ef6deb6	0.4821679
33	0xbd10bcf0	-0.035336435
34	0x3e97348a	0.29532272
35	0xbe1ed1c0	-0.15509701
36	0xbca84620	-0.02054125
37	0xbe146310	-0.14490914
38	0x3e2ae220	0.16687822
39	0xbdddf798	-0.108382404
40	0x3e075d6c	0.13219231
41	0x3c9ae140	0.018906236
42	0x3f1819b7	0.5941424
43	0x3f01e435	0.5073884
44	0xbcdcba80	-0.026944399
45	0xbe8e5084	-0.27795804
46	0x3e949332	0.2901855
47	0xbe405630	-0.18782878
48	0xbeaeec2d	-0.34164563
49	0xbec51841	-0.38495067
50	0x3f232627	0.6373009
51	0xbeb33231	-0.3499923
52	0x3f33b14d	0.70192415
53	0xbeeae2d0	-0.4587617
54	0x3e88ff92	0.26757485
55	0xbeac4517	-0.3364646
56	0xbcb45980	-0.022015333
57	0x3ee1a6da	0.4407261
58	0xbeecc7c7	-0.46246168
59	0xbeeccfe0	-0.46252346
60	0x3e552ca4	0.2081781
61	0x3f09669b	0.5367219
62	0xbe2c5940	-0.16830921
63	0x3d2b5f50	0.041838944

output_layer.output.weight f4 [100, 64]
0	0x3d6ef192	0.05833585
1	0x3d42e46a	0.047581114
2	0xbc507144	-0.012722317
3	0xbdb67bef	-0.08910357
4	0xbd46f2c9	-0.04857138
5	0xbc916266	-0.017747115
6	0x3ca07887	0.019588722
7	0xbc900edd	-0.017585212
8	0xbce4351a	-0.027857352
9	0xbda509ca	-0.08058508
10	0x3d1d0fbd	0.038345087
11	0x3d851c84	0.064995795
12	0xbdebc060	-0.11511302
13	0x3e05d855	0.13070805
14	0x3b591aae	0.0033127475
15	0xbdbe52a2	-0.09293105
16	0xbdc8c400	-0.09803009
17	0xbdc333c6	-0.095313594
18	0x3d8f0ddc	0.06985065
19	0x3c9276b4	0.017878868
20	0xbe05227d	-0.13001437
21	0xbc0876fa	-0.0083291475
22	0xbcf800a3	-0.030273741
23	0x3dad7229	0.0846904
24	0xbd1e6607	-0.03867152
25	0x3dcbcf7a	0.099516824
26	0xbc0b0458	-0.008484922
27	0x3d02a355	0.031894047
28	0xbc2e55cf	-0.010640576
29	0xbcb95a39	-0.02262603
30	0x3c8b359c	0.016993336
31	0xbd9ada07	-0.07561117
32	0x3d4a0901	0.049324993
33	0x3bb8d6d7	0.0056408453
34	0xbd44c78f	-0.048041876
35	0x3db0ffc3	0.08642533
36	0xbd3f23ec	-0.046665117
37	0x3c2a7444	0.010403696
38	0x3d5c8556	0.053838097
39	0xbce9ac9a	-0.028524686
40	0xbd5048d8	-0.05085072
41	0x3d0cfa64	0.03441848
42	0xbd8b6988	-0.06807238
43	0x3c3ad889	0.011404165
44	0x3b5bfdca	0.0033568018
45	0x3de37169	0.11105616
46	0x3a917c89	0.0011099736
47	0x3c898e39	0.01679145
48	0xbc519e19	-0.012794041
49	0xbda9cab1	-0.082906134
50	0x3dca7022	0.09884669
51	0xbdc3fb88	-0.0956946
52	0xbd0c6c56	-0.034283005
53	0x3dd00f76	0.10159199
54	0xbd262ab9	-0.040568087
55	0xbde8b0f2	-0.11361875
56	0x3c87dab5	0.01658378
57	0x3b479398	0.0030452963
58	0xbde52c43	-0.11190083
59	0xbd5da616	-0.05411347
60	0x3dcc5d9a	0.099787906
61	0x3e048d5f	0.12944554
62	0xbd711375	-0.058856446
63	0xbdb77349	-0.08957536
64	0x3d4fbb7d	0.050715912
65	0x3d8cb447	0.06870323
66	0xbd06ad29	-0.032879982
67	0x3de32a11	0.11092008
68	0xbd3c85b7	-0.046025958
69	0xbda5256b	-0.080637775
70	0xbcbb03ec	-0.022829019
71	0xbd49cafa	-0.04926584
72	0x3cc285ef	0.023745505
73	0x3ceb30a3	0.028709715
74	0x3cae5632	0.021281336
75	0xbd8733e1	-0.06601692
76	0x3de9821b	0.11401769
77	0xbc91b3a5	-0.017785857
78	0xba4312d3	-0.00074414647
79	0x3bd482ce	0.0064853197
80	0xbcd6f5e9	-0.026240306
81	0xbdda0376	-0.10645191
82	0xbd3fa164	-0.046784773
83	0xbdcc80d2	-0.09985508
84	0xbd4a20a3	-0.04934753
85	0xbde169c6	-0.11006503
86	0x3d1f58bd	0.038902987
87	0xbdd1232e	-0.10211788
88	0xbd901ad8	-0.0703637
89	0x3d9694c3	0.07352593
90	0xbda79ae4	-0.0818384
91	0xbdcc26f2	-0.09968366
92	0x3db86468	0.09003526
93	0xbdfefab8	-0.124501646
94	0xbd1f684a	-0.038917817
95	0xbdf6dd93	-0.12053981
96	0x3be16649	0.0068786484
97	0xbd56fe17	-0.052488413
98	0x3b8c53e7	0.004282463
99	0x3dba7915	0.09105126
100	0x3ce1eb93	0.02757815
101	0xbd11335e	-0.03544938
102	0xbdc43092	-0.095795766
103	0xbd781b30	-0.060572803
104	0xbb24a70c	-0.0025123982
105	0xbdbd89b4	-0.092547804
106	0xbdd02328	-0.101629555
107	0x3df46759	0.119337745
108	0x3d415af7	0.04720589
109	0xbc6e32e4	-0.0145385
110	0xbdabb755	-0.08384577
111	0x3d8a1e4e	0.067440614
112	0xbdd2be8d	-0.10290251
113	0x3de3f3fb	0.1113052
114	0x3da5d4ff	0.080972664
115	0xbd1556b5	-0.036459643
116	0x3c639ac6	0.013891881
117	0xbc42e66a	-0.011895755
118	0x3d9843e4	0.07434824
119	0xbda5e381	-0.081000336
120	0x3dfcbef1	0.12341107
121	0x3dda5181	0.10660077
122	0xbde51ff4	-0.11187735
123	0x3be26d62	0.006910012
124	0xbd3b46d2	-0.045721836
125	0x3e099c2e	0.13438484
126	0xbd568eae	-0.052382164
127	0xbd7a2e10	-0.061079085
128	0x3c9bfc0b	0.019041082
129	0xbdaa98d3	-0.0832993
130	0xbc1616b6	-0.009160688
131	0x3d530751	0.05152065
132	0x3de5bbaa	0.11217435
133	0xba55ac6e	-0.0008150999
134	0x3dca9d6f	0.09893309
135	0x3c25972d	0.010106844
136	0xbd932a61	-0.071858175
137	0xbd32e9df	-0.043680068
138	0xbd587605	-0.052846927
139	0xbd5c61e0	-0.05380428
140	0xbd51ce9b	-0.051222425
141	0x3c8d9a11	0.017285379
142	0x3e021d14	0.12706405
143	0x3dd2314c	0.10263309
144	0xbdfefec0	-0.124509335
145	0x3dc026df	0.09382414
146	0xbde2d971	-0.1107663
147	0x3b17ac57	0.0023143494
148	0x3c76bd43	0.015059772
149	0x3d0e7ff2	0.034789987
150	0x3dd6e44c	0.10492763
151	0xbcef8128	-0.029236391
152	0xbd7d1875	-0.061790902
153	0x3bc15e7c	0.005901156
154	0x3d64dca2	0.055874474
155	0xbd7a9c09	-0.061183963
156	0x3d8bc481	0.068245895
157	0x3c8f37e3	0.017482704
158	0x3d488219	0.048952196
159	0xbdd39642	-0.10331394
160	0x3b5dfa16	0.0033870987
161	0xbe01271f	-0.1261258
162	0xbb03a256	-0.0020085773
163	0xbdf6de9e	-0.120541796
164	0xbdd64636	-0.104626104
165	0x3c47e3dd	0.012200323
166	0x3d6a544c	0.057209298
167	0x3bd7473e	0.006569772
168	0xbc8cc780	-0.017184973
169	0xbd9cfc57	-0.076653175
170	0xbd63998f	-0.055566367
171	0xbcabc905	-0.020969877
172	0x3dcd73d9	0.10031862
173	0xbda5041f	-0.08057427
174	0x3d32f4cc	0.043690488
175	0xbcb55be1	-0.022138538
176	0x3d9c8132	0.076418296
177	0x3dfc9be1	0.12334419
178	0xbdc8bdd0	-0.09801829
179	0xbd77049e	-0.060307138
180	0x3cce701a	0.025199939
181	0xbd9c30d3	-0.076265
182	0x3dbeab86	0.09310059
183	0x3cda7aa5	0.02666981
184	0x3dd162ed	0.10223947
185	0x3d9ad670	0.07560432
186	0xbdf38aaa	-0.118916824
187	0xbbc31135	-0.005952979
188	0xbda79f2e	-0.08184658
189	0x3d4ab03a	0.04948447
190	0x3a4d734c	0.000783731
191	0xbbb1c3e2	-0.0054249624
192	0xbd03cdcf	-0.032178696
193	0xbdc88251	-0.09790481
194	0x3d354cc2	0.044262655
195	0xbd4150e9	-0.047196303
196	0x3ddf7c48	0.10912377
197	0xbdd96ff9	-0.1061706
198	0x3d1fb477	0.038990464
199	0xbd936c59	-0.071984
200	0xbcccbf25	-0.024993489
201	0xbdd78038	-0.10522503
202	0xbd93755b	-0.07200118
203	0x3dcf48df	0.10121321
204	0x3d534ec7	0.0515888
205	0xbd8d8a8c	-0.06911191
206	0xbda30125	-0.07959203
207	0x3d010ba3	0.03150524
208	0xbd8a7827	-0.067611985
209	0x3c2ad463	0.0104266135
210	0x3d106b0e	0.035258345
211	0x3ca730cd	0.020409012
212	0x3a9d03ad	0.0011979245
213	0xbddc4c59	-0.1075675
214	0xbc8067c2	-0.015674476
215	0x3d8c636c	0.06854901
216	0x3ba5842e	0.0050511574
217	0x3d8b9e70	0.06817329
218	0x3d2fcbeb	0.04291908
219	0x3dcdc2b1	0.100469
220	0xbd40f38c	-0.047107264
221	0x3d9e2741	0.07722331
222	0x3b787c3a	0.0037915842
223	0xbb55e2b7	-0.0032636353
224	0x3de5e652	0.11225571
225	0x3d4d3092	0.05009515
226	0x3c4bae19	0.012431645
227	0xbd2c40b9	-0.04205391
228	0xbd46b25e	-0.048509948
229	0x3c58121d	0.013187912
230	0x3dbf5f7f	0.09344386
231	0x3dd4e6fc	0.10395619
232	0x3d4561a7	0.04818883
233	0x3ce75861	0.028240385
234	0xbba575bf	-0.005049437
235	0x3dec3a64	0.11534575
236	0xbd28e1ae	-0.04123085
237	0x3dfda3d3	0.123847626
238	0xbd40cea1	-0.047072057
239	0x3d8bd383	0.06827452
240	0xbd123b1e	-0.03570091
241	0x3c939e2b	0.018019756
242	0x3da3e2e4	0.0800226
243	0x3ddea100	0.10870552
244	0x3c554b5b	0.013018454
245	0xbdd4f34a	-0.10397966
246	0xbde1c168	-0.110232174
247	0x3cbd9f1e	0.023147162
248	0xbd8a76f0	-0.06760967
249	0xbdc9eb72	-0.09859361
250	0x3db991ff	0.0906105
251	0x3cc38a08	0.02386953
252	0xbc30953d	-0.010777769
253	0xbdc21e23	-0.094784044
254	0x3cfc0bd8	0.030767366
255	0xbd99e997	-0.07515257

output_layer.output.bias f4 [100]
0	0x3d1c33bc	0.038135275
1	0x3d96b738	0.07359165
2	0xbd81754e	-0.06321202
3	0xbcfd63b0	-0.030931324
4	0xbdf4249e	-0.11921047
5	0xbda65f26	-0.08123617
6	0xbcf20468	-0.029543117
7	0xbcec9a30	-0.028882116
8	0xbcc43548	-0.023951188
9	0x3deda366	0.116034314
10	0x3de4a28c	0.11163816
11	0xbd6de478	-0.058079213
12	0xbcd151f0	-0.025551766
13	0x3d463558	0.048390716
14	0x3c9b02c0	0.01892221
15	0xbdd676c8	-0.104718745
16	0x3df99b16	0.121877834
17	0x3df15448	0.117836535
18	0x3c665490	0.014058247
19	0x3d8c50be	0.06851338
20	0xbdda926c	-0.10672459
21	0x3dbbfbaa	0.091788605
22	0xbdf20ae6	-0.11818485
23	0xbde30092	-0.11084093
24	0xbdcb1cce	-0.099176034
25	0x3d186010	0.037200987
26	0x3dbd1300	0.092321396
27	0xbc318d00	-0.01083684
28	0x3c80df78	0.015731558
29	0xbdc99e52	-0.0984465
30	0x3c6e49f0	0.014543995
31	0x3d49d990	0.04927975
32	0xbd08ec68	-0.03342858
33	0xbd1e1484	-0.038593784
34	0xbd24af78	-0.040206403
35	0x3d2ac828	0.04169479
36	0xbce16e38	-0.027518377
37	0x3d895252	0.067051545
38	0x3da6cf30	0.08144987
39	0x3dd2b6b8	0.10288757
40	0x3de74856	0.11293094
41	0x3d8aadee	0.06771456
42	0x3d8573be	0.06516217
43	0xbdc92c62	-0.098229185
44	0x3dade786	0.08491425
45	0xbb85ba20	-0.0040810257
46	0xbdf4e12a	-0.11957009
47	0xbdc3c288	-0.09558588
48	0x3d24cf2c	0.040236637
49	0x3b5ea740	0.00339742
50	0x3cd689c0	0.026188731
51	0x3cd6d8a0	0.026226342
52	0x3ddd72a2	0.1081288
53	0x3dd1166c	0.10209355
54	0xbdb1e04e	-0.08685361
55	0x3ceefe80	0.02917409
56	0x3dafa740	0.08576822
57	0xbcc01c98	-0.023451135
58	0x3d8aa23e	0.067692265
59	0x3dcdf56c	0.10056576
60	0x3dabe9e0	0.083942175
61	0xbdbb9202	-0.09158708
62	0x3cb6d7c0	0.022319674
63	0xbd8f6cc4	-0.07003167
64	0x3de0ddb2	0.10979785
65	0x3dc7b280	0.09750843
66	0x3d0d3068	0.034469992
67	0x3de243c8	0.110480845
68	0x3de9f262	0.11423184
69	0xbd8ac112	-0.067751065
70	0x3dcf1a1e	0.10112403
71	0x3dffdcbe	0.12493275
72	0xbde966e2	-0.113965765
73	0xbd668ed4	-0.056288555
74	0x3c919260	0.017769992
75	0x3c50f870	0.012754545
76	0xbc999c28	-0.018751219
77	0x3c8f0b48	0.017461434
78	0xbd7bf868	-0.061516196
79	0xbdedb5c8	-0.11606938
80	0xbd7916d8	-0.0608128
81	0xbd84c6bc	-0.06483218
82	0x3b4f5ec0	0.0031642169
83	0xbcef1090	-0.029182702
84	0xbd176484	-0.036961094
85	0xbd355278	-0.0442681
86	0x3db01108	0.085969985
87	0xbd8d1db8	-0.06890434
88	0x3b6fbe00	0.0036581755
89	0xbcc8aa90	-0.024495393
90	0xbd8ea780	-0.06965542
91	0xbc8c7c68	-0.017149165
92	0xbd7dbcd8	-0.061947674
93	0x3d021b24	0.031764165
94	0x3dc6f14e	0.09713994
95	0x3d79fb64	0.06103076
96	0xbc2897e0	-0.010290116
97	0x3c024370	0.007950649
98	0xbd333d74	-0.04375978
99	0xbda64ef6	-0.08120529
